…
I have tried a CNN with varying layers and number of parameters.   I created a VM on google cloud and ran Bayenesian Optimization multiple times for 100-150 trials searching across the following hyperparameter space: Learning Rate, Regularization, Dropout, Number of filters, kernel\_size, strides

&#x200B;

*CNN-RNN Hybrid, Dropout*

I have also tried a CNN-RNN hybrid architecture where I have 1-3 1D conv layers and 2 LSTM layers.   The idea was that the CNN layers learn to recognize small features akin to notes/chords and the LSTM layers learn to recognize sequences of those small features.

**An example of a hybrid model:**

Layer (type)                Output Shape              Param #

=================================================================

input\_1 (InputLayer)        \[(None, 431, 20)\]         0

conv1d (Conv1D)             (None, 142, 64)           9024

batch\_normalization (BatchN  (None, 142, 64)          256

ormalization)

activation (Activation)     (None, 142, 64)           0

spatial\_dropout1d (SpatialD  (None, 142, 64)          0

ropout1D)

conv1d\_1 (Conv1D)           (None, 46, 128)           41088

batch\_normalization\_1 (Batc  (None, 46, 128)          512

hNormalization)

activation\_1 (Activation)   (None, 46, 128)           0

spatial\_dropout1d\_1 (Spatia  (None, 46, 128)          0

lDropout1D)

lstm (LSTM)                 (None, 46, 40)            27040

dropout (Dropout)           (None, 46, 40)            0

batch\_normalization\_2 (Batc  (None, 46, 40)           160

hNormalization)

lstm\_1 (LSTM)               (None, 80)                38720

dropout\_1 (Dropout)         (None, 80)                0

batch\_normalization\_3 (Batc  (None, 80)               320

hNormalization)

dense (Dense)               (None, 10)                810

=================================================================

Total params: 117,930

Trainable params: 117,306

Non-trainable params: 624

&#x200B;

**The Problem**

No matter what I try, my model starts ovefitting around 70-80% test set accuracy.   The best I could get with Bayenesian optimization was around 82% test set accuracy.   The typical result is 70-75% test set accuracy.   I tried
…
